model_10.pth (torch, 65189 bytes, 52 tensors)

convolutional.conv.weight f4 [16, 2, 5, 5]
-0.06342318 0.06407953 -0.022653146 -0.054772902 -0.04882536 -0.061781965 0.043340206 -0.14639589
0.07391576 -0.04253086 -0.0143387625 0.29101446 0.37409583 0.3092655 -0.017991977 0.051793933
0.49855387 0.17139088 -0.115284115 -0.04812398 -0.08192108 0.021465385 -0.16017374 -0.14318977
-0.0035132996 -0.07509988 0.04504724 -0.03342293 -0.055007897 0.027086502 0.08693622 0.004628499
0.048776057 -0.100826845 -0.09279057 -0.1192732 -0.053089615 -0.042805538 -0.053953424 0.07088826
-0.03749824 0.008054959 -0.10470174 0.12133542 -0.060382426 -0.11712755 -0.12817039 -0.053028345
0.08551923 -0.012139759 0.104295745 -0.027000895 -0.0308847 0.029817352 0.12741971 -0.015788918
-0.116632804 -0.048674267 -0.08043427 -0.07362302 -0.034940872 0.08047878 -0.16001983 -0.06457865
-0.13597243 0.027569685 0.044255927 -0.020708209 0.08752696 -0.0041114544 -0.016729884 0.003888922
-0.1020811 0.10634173 0.09187345 0.17010653 0.13275531 -0.19124423 -0.11386168 0.079643846
-0.032428805 -0.27127537 -0.20834658 -0.22270414 0.017784841 -0.03290405 -0.0899154 -0.52762496
-0.2873502 -0.1399399 0.11962706 -0.1644935 -0.042197842 0.042415764 0.0037928198 0.11731796
0.08162278 -0.16875063 -0.050945826 0.12129406 -0.063701496 -0.04980867 -0.03653013 -0.005213029
0.014901954 0.05373591 0.072641134 0.022399383 0.10024201 -0.036890473 -0.073181756 0.001561082
-0.058250807 -0.16473617 0.03473304 0.037842486 -0.055890065 -0.10622381 -0.050135415 0.069209576
-0.04117663 -0.028368996 0.070284754 -0.042888615 -0.018671792 -0.16217688 0.059321176 -0.057491306
0.0756969 -0.0901284 0.12811074 0.27560014 0.08228662 0.031653445 0.03691471 -0.15937528
0.029406255 -0.20191248 0.06757905 0.022215134 0.018572524 0.18047972 -0.03206587 0.2788352
-0.09004888 0.06116951 -0.017526276 -0.095208734 -0.043096792 -0.0044695903 0.024059014 -0.0688466
-0.06631803 0.070879094 0.03224631 0.1134898 0.15597181 0.31759056 0.4052588 0.14997973
0.08463886 0.07849319 0.01616663 0.34908777 -0.14531559 -0.0423671 0.14836165 0.23113556
0.20757516 0.06719769 -0.034985933 -0.0698356 0.003499497 0.107296765 -0.11115113 0.035819516
-0.11908278 -0.066282384 0.0939671 -0.05245807 -0.029695293 0.093886815 0.10520925 0.091447785
-0.08215091 0.054986138 0.019567804 0.0050987354 0.15304743 0.17687936 -0.09260778 0.1413804
0.05698974 -0.094764695 0.03574032 -0.030144757 -0.01685153 0.10483162 -0.10289819 0.03352826
-0.0008111032 0.04284589 0.056225277 0.04919367 0.027715703 0.034058098 0.11696547 -0.08340747
0.19417898 0.037445277 -0.105038114 -0.043908726 0.2824588 0.10726857 0.13284887 -0.0046628737
0.03401218 0.0040680533 -0.16297238 0.08226332 -0.004418658 -0.012689722 0.10286912 -0.1572789
0.024473118 -0.038306475 0.00834119 0.053411953 0.010839626 -0.06989188 0.08479824 0.015914397
-0.117787026 -0.041116823 -0.0040810024 -0.039577935 -0.1465884 -0.2369191 1.8756811e-05 -0.039401423
-0.0053382036 0.02197431 -0.2325299 -0.08484215 0.065935776 -0.002492854 -0.026436668 -0.01860196
0.16844465 0.04303551 -0.008900517 0.040852074 -0.006973957 0.097738825 -0.03589244 -0.011021595
00000000: 03e4 81bd 213c 833d 1793 b9bc 8d59 60bd
00000010: 1afd 47bd 160f 7dbd 8085 313d cee8 15be
00000020: 2561 973d d734 2ebd 21ed 6abc d9ff 943e
00000030: 7d89 bf3e 0c58 9e3e e963 93bc e025 543d
00000040: 7442 ff3e 1781 2f3e 141a ecbd a71d 45bd
00000050: 3dc6 a7bd 2dd8 af3c 9604 24be 57a0 12be
00000060: 633f 66bb f7cd 99bd 7483 383d 7be6 08bd
00000070: f64f 61bd 83e4 dd3c 9e0b b23d aaaa 973b
00000080: 67c9 473d 4e7e cebd fb08 bebd 8245 f4bd
00000090: 7f74 59bd dc54 2fbd 44fe 5cbd dd2d 913d
000000a0: c197 19bd f2f8 033c de6d d6bd b47e f83d
000000b0: 9053 77bd 92e0 efbd 193f 03be 4034 59bd
000000c0: b524 af3d d7e5 46bc 0299 d53d fb30 ddbc
000000d0: e901 fdbc 8543 f43c 507a 023e c357 81bc
000000e0: 2edd eebd ab5e 47bd b9ba a4bd aac7 96bd
000000f0: 291e 0fbd 0fd2 a43d 3ddc 23be d041 84bd
00000100: 5b3c 0bbe d2d9 e13c b445 353d 43a4 a9bc
00000110: 5641 b33d 61b9 86bb 1c0d 89bc 49dd 7e3b
00000120: e50f d1bd b1c9 d93d 2628 bc3d 6830 2e3e
00000130: 02f1 073e 87d5 43be 5030 e9bd 501c a33d
00000140: 11d4 04bd 9be4 8abe ce58 55be 8e0c 64be
00000150: 84b1 913c 66c6 06bd 9125 b8bd 6e12 07bf
00000160: 911f 93be 684c 0fbe 08ff f43d fc70 28be
00000170: a5d7 2cbd 27bc 2d3d f590 783b 6644 f03d
00000180: d829 a73d f7cc 2cbe 92ac 50bd 0569 f83d
00000190: ee75 82bd 2d04 4cbd 9ea0 15bd 0fd2 aabb
000001a0: 5327 743c 301a 5c3d e0c4 943d e97e b73c
000001b0: af4b cd3d 771a 17bd 51e0 95bd 389d cc3a
000001c0: 6698 6ebd 99b0 28be 3b44 0e3d b900 1b3d
000001d0: fbec 64bd de8b d9bd cb5a 4dbd c0bd 8d3d
000001e0: d3a8 28bd 1966 e8bc 74f1 8f3d f9ab 2fbd
000001f0: 96f5 98bc b211 26be c3fa 723d 017c 6bbd
00000200: fa06 9b3d 3d95 b8bd 762f 033e 761b 8d3e
00000210: e385 a83d 0ba7 013d e133 173d 4633 23be
00000220: 63e5 f03c 25c2 4ebe e366 8a3d 83fc b53c
00000230: 6825 983c adcf 383e 8057 03bd 7dc3 8e3e
00000240: 8c6b b8bd e18c 7a3d 4493 8fbc ccfc c2bd
00000250: 4386 30bd a475 92bb 6917 c53c 72ff 8cbd
00000260: bfd1 87bd 0f29 913d b514 043d 576d e83d
00000270: 13b7 1f3e 3b9b a23e 157e cf3e 4994 193e
00000280: 2357 ad3d 0ac1 a03d e16f 843c a2bb b23e
00000290: 9ccd 14be 2089 2dbd 1eec 173e cdae 6c3e
000002a0: 958e 543e f19e 893d 694d 0fbd f805 8fbd
000002b0: d157 653b 68be db3d 34a3 e3bd 7cb7 123d
000002c0: ace1 f3bd 0fbf 87bd d371 c03d 46de 56bd
000002d0: 8b43 f3bc bb47 c03d f277 d73d fa48 bb3d
000002e0: bc3e a8bd 2539 613d a94c a03c 4b13 a73b
000002f0: 77b8 1c3e dd1f 353e 26a9 bdbd 06c6 103e
00000300: 136e 693d fe13 c2bd 7164 123d 23f2 f6bc
00000310: 380c 8abc f6b1 d63d 49bc d2bd ee54 093d
00000320: 37a0 54ba 2c7f 2f3d 7a4c 663d 4d7f 493d
00000330: 0b0c e33c 8180 0b3d 988b ef3d 89d1 aabd
00000340: dbd6 463e 3860 193d 391e d7bd a3d9 33bd
00000350: 719e 903e a0af db3d 8909 083e 05cb 98bb
00000360: 5b50 0b3d 4e4d 853b 3be2 26be ac79 a83d
00000370: 64ca 90bb 8de8 4fbc 0cad d23d b80d 21be
00000380: d97b c83c 40e7 1cbd 7da9 083c 7ec6 5a3d
00000390: b098 313c 7923 8fbd b3aa ad3d e95e 823c
000003a0: 533a f1bd 1d6a 28bd eeb9 85bb 791c 22bd
000003b0: 451b 16be ec9a 72be f257 9d37 6363 21bd
000003c0: 19ec aebb 7803 b43c 511c 6ebe b9c1 adbd
000003d0: 5609 873d 265f 23bb b691 d8bc 2363 98bc
000003e0: c17c 2c3e 0146 303d 79d3 11bc 8154 273d
000003f0: cb85 e4bb 4b2b c83d f303 13bd ec93 34bc

convolutional.conv.bias f4 [16]
-0.052699044 0.017422069 0.029688293 0.036048662 0.13284144 -0.057740364 -0.01199131 0.07040017
-0.037356064 -0.047167134 0.1445157 -0.010091221 0.0395945 -0.082627125 0.17155112 -0.04336992
00000000: f4da 57bd bab8 8e3c dd34 f33c c3a7 133d
00000010: 9607 083e 2981 6cbd 3377 44bc f72d 903d
00000020: ac02 19bd 5332 41bd ecfb 133e a655 25bc
00000030: d82d 223d 6938 a9bd 19ab 2f3e a8a4 31bd

convolutional.bn.weight f4 [16]
1.0717411 0.911059 1.0168585 1.1781936 0.9260919 1.1231147 1.2507579 0.8975438
1.3180419 1.0498792 1.1181896 0.9630572 0.9719934 1.4614178 1.540517 1.1899934
00000000: d02e 893f 2a3b 693f 6b28 823f 0ccf 963f
00000010: 5c14 6d3f 39c2 8f3f d618 a03f 6ec5 653f
00000020: 99b5 a83f 7162 863f d620 8f3f eb8a 763f
00000030: 8fd4 783f bd0f bb3f a92f c53f b451 983f

convolutional.bn.bias f4 [16]
0.2346025 0.064754 0.35884643 0.1857318 -0.06823592 0.0248283 0.9699605 0.020199385
0.43692195 0.30941615 0.39452714 -0.13960466 0.16242795 0.42330968 0.1783868 0.1781706
00000000: a33b 703e bf9d 843d b8ba b73e 7a30 3e3e
00000010: 46bf 8bbd b864 cb3c 554f 783f 2e79 a53c
00000020: 3cb4 df3e cb6b 9e3e 76ff c93e 86f4 0ebe
00000030: 8353 263e 0cbc d83e 08ab 363e 5b72 363e

convolutional.bn.running_mean f4 [16]
0.035786908 -0.95463413 0.06314191 1.2614112 0.13781558 0.8636992 0.03300867 -1.4766932
-0.051550545 -0.13549288 0.14477614 0.42056587 -1.1308035 -0.087959096 0.14305027 0.6704664
00000000: 4b95 123d e762 74bf 8c50 813d ec75 a13f
00000010: 871f 0d3e 641b 5d3f 1934 073d 4804 bdbf
00000020: aa26 53bd a5be 0abe 3240 143e 6954 d73e
00000030: 2bbe 90bf e623 b4bd c57b 123e b0a3 2b3f

convolutional.bn.running_var f4 [16]
0.055385806 0.15210302 0.013576236 0.19634138 0.04608129 0.09861104 0.004307417 0.4479578
0.0075403997 0.07375492 0.03242002 0.17797722 0.1551226 0.012398601 0.03229012 0.06784327
00000000: 3adc 623d e5c0 1b3e dc6e 5e3c b70d 493e
00000010: bcbf 3c3d 96f4 c93d 3c25 8d3b ba5a e53e
00000020: 7515 f73b d20c 973d dbca 043d a93f 363e
00000030: 75d8 1e3e 8023 4b3c a542 043d 6af1 8a3d

convolutional_out.conv.weight f4 [1, 16, 1, 1]
-0.19207355 -0.0053308043 0.044827584 -0.11903583 -0.001687433 0.076175116 0.17167921 -0.12915337
-0.15627797 0.02727979 0.0053603137 -0.09301385 -0.20083772 0.17313801 0.12716019 0.13555376
00000000: eeae 44be 07ae aebb 219d 373d 0fc9 f3bd
00000010: db2c ddba b301 9c3d adcc 2f3e c840 04be
00000020: 5507 20be de79 df3c 92a5 af3b 0c7e bebd
00000030: 67a8 4dbe 174b 313e 4836 023e 9bce 0a3e

fem.conv.weight f4 [16, 16, 3, 3]
0.15314601 0.16943462 0.06400252 0.14800254 0.052825462 0.16917324 0.15106961 0.072011195
0.12462763 -0.031219807 -0.034296837 0.070221566 0.06966907 -0.05961086 0.00099396 -0.017078826
-0.029564098 -0.004551397 0.12609218 -0.14700033 0.14913131 0.12449858 0.088415526 0.090779476
-0.013969873 0.09301972 -0.019095622 -0.019747728 0.011938053 0.0836169 0.006996027 -0.062959485
-0.013486433 -0.07252638 -0.014100596 0.046333518 0.026689664 0.11063774 0.0069922474 0.060724616
0.12613367 0.082546435 -0.019858819 0.034259584 0.095570266 -0.11315638 -0.012845403 -0.0005030201
-0.13024074 -0.13856427 -0.068343565 0.053093623 -0.05958057 0.017526915 -0.06764354 0.061402764
0.007556199 -0.05179737 -0.054500874 0.00968488 -0.014236567 -0.019949066 0.046809852 -0.023088131
-0.028713083 -0.06420035 -0.020860875 0.019574638 0.046801046 0.019100694 0.040483642 -0.039011102
0.08028221 -0.073116146 -0.007211877 -7.525133e-05 0.028444635 0.09290084 0.07064415 -0.065675065
-0.023493119 8.396243e-05 0.02728639 0.00479128 0.07597488 0.043133598 -0.022734845 0.00060857733
-0.0045098993 -0.031796776 -0.02640424 -0.018817637 0.002646284 0.07245388 -0.10800249 0.028865447
-0.016189765 -0.002073593 -0.00902505 0.10643462 0.15766841 0.16927505 0.1104823 0.1184051
0.1540078 0.14991295 0.16870454 0.089471 0.14151035 0.07923535 0.043482874 0.061726663
-0.022590393 0.041472062 0.11618176 0.046621855 0.037251644 0.039697975 -0.037776668 -0.006307873
-0.08895322 -0.046097923 -0.026077447 -0.041088317 -0.03586831 -0.10672033 0.03909259 0.054969188
0.005108511 0.03909181 0.090398 0.01833659 0.047965467 -0.019931039 -0.04196333 0.09736102
0.06457761 0.13418414 0.06325966 0.030626394 0.01623499 0.12534612 -0.01122865 0.119067326
-0.016431542 -0.026415026 0.04418106 0.04164237 0.12778881 0.063667394 -0.020509435 -0.0245803
0.059788186 0.03150356 -0.14661671 0.022031872 -0.0337794 -0.14917378 0.01808471 0.022167018
0.009912267 0.036316764 0.00093696895 -0.09925596 -0.02055517 0.052489296 -0.10880473 0.04765496
0.083754405 -0.06499353 0.10813649 0.118266664 0.06773371 0.04789108 0.116367415 -0.015567694
0.11529251 0.15277982 0.13096173 0.113158084 0.0045030727 0.055750187 0.04554862 0.078964464
0.08828364 -0.08803724 -0.003986715 -0.031886812 -0.0126165515 0.027711103 0.0051194434 -0.03932223
0.009245025 0.15211812 -0.06270779 0.011571337 0.04615526 -0.00360422 -0.071743704 0.09645693
-0.042791933 0.02991026 -0.062499724 0.046958227 0.004404423 -0.05662145 -0.082952656 -0.12826389
-0.08281743 -0.1531747 -0.04063809 -0.06998868 -0.0495022 -0.024535019 -0.11202938 -0.13574745
0.08675632 0.09982229 0.0022149188 -0.100955956 -0.018625036 0.14308505 0.016998485 -0.11297118
0.106535494 -0.045376398 -0.09039852 -0.11014542 -0.08892708 -0.026627174 -0.056966253 -0.11900851
-0.092829175 0.029393632 -0.11806169 -0.08622567 -0.016676016 -0.045739852 -0.03773612 0.056800753
-0.058878142 -0.04375996 -0.05316982 0.016313257 0.008792354 0.033645537 -0.03843378 -0.00998303
0.03960987 0.038649607 -0.004935472 -0.07036674 -0.091854736 0.0022083144 -0.056417994 0.093143895
00000000: 4fd2 1c3e 4580 2d3e c113 833d fa8d 173e
00000010: 835f 583d c03b 2d3e feb1 1a3e 9b7a 933d
00000020: c53c ff3d aec0 ffbc d77a 0cbd 53d0 8f3d
00000030: a8ae 8e3d 842a 74bd c347 823a e5e8 8bbc
00000040: 6830 f2bc e323 95bb 4f1e 013e 4187 16be
00000050: e1b5 183e 1df9 fe3d 3313 b53d 97ea b93d
00000060: e5e1 64bc 1f81 be3d 6c6e 9cbc fdc5 a1bc
00000070: d397 433c 563f ab3d ee3e e53b e7f0 80bd
00000080: 33f6 5cbc b688 94bd 3006 67bc 37c8 3d3d
00000090: 48a4 da3c 0a96 e23d 391f e53b 60ba 783d
000000a0: 2f29 013e 1b0e a93d f6ae a2bc c753 0c3d
000000b0: 58ba c33d 88be e7bd 8675 52bc 1cdd 03ba
000000c0: d45d 05be cbe3 0dbe b6f7 8bbd b378 593d
000000d0: c10a 74bd 9b94 8f3c b288 8abd 7781 7b3d
000000e0: fe99 f73b 7b29 54bd 4f3c 5fbd 55ad 1e3c
000000f0: 7d40 69bc 396c a3bc b0bb 3f3d 5223 bdbc
00000100: b337 ebbc 797b 83bd 6de4 aabc fe5a a03c
00000110: 74b2 3f3d 0f79 9c3c 2dd2 253d 1bca 1fbd
00000120: 006b a43d ebbd 95bd 9c51 ecbb 40d0 9db8
00000130: b904 e93c cc42 be3d e1ad 903d a680 86bd
00000140: a474 c0bc fd14 b038 b587 df3c 2b00 9d3b
00000150: b898 9b3d dbac 303d 6d3e babc ef88 1f3a
00000160: c7c7 93bb 563d 02bd b44d d8bc 7227 9abc
00000170: 476d 2d3b b362 943d 6930 ddbd 3b77 ec3c
00000180: 66a0 84bc 1ee5 07bb cedd 13bc 65fa d93d
00000190: d473 213e 7056 2d3e 8b44 e23d 607e f23d
000001a0: 39b4 1d3e c882 193e e2c0 2c3e 923c b73d
000001b0: 17e8 103e 2546 a23d 191b 323d 19d5 7c3d
000001c0: 7d0f b9bc 9cde 293d b4f0 ed3d 8ff6 3e3d
000001d0: 2e95 183d 589a 223d b5bb 1abd 46b2 cebb
000001e0: 1b2d b6bd 2dd1 3cbd 5fa0 d5bc 394c 28bd
000001f0: a6ea 12bd 3090 dabd 8d1f 203d 5f27 613d
00000200: 4c65 a73b bc1e 203d 9622 b93d 9e36 963c
00000210: 7077 443d 6b46 a3bc bee1 2bbd 3765 c73d
00000220: 4441 843d 9167 093e 488e 813d 34e4 fa3c
00000230: 3eff 843c bc5a 003e 5ff8 37bc 92d9 f33d
00000240: 719b 86bc 5364 d8bc 33f7 343d 3191 2a3d
00000250: 12db 023e 0d64 823d 6703 a8bc a05c c9bc
00000260: 75e4 743d e009 013d b122 16be 2f7c b43c
00000270: 455c 0abd 03c1 18be 6326 943c 9b97 b53c
00000280: 1067 223c e3c0 143d ec9e 753a b546 cbbd
00000290: 5163 a8bc 04ff 563d 04d5 debd d931 433d
000002a0: 6e87 ab3d 541b 85bd aa76 dd3d cb35 f23d
000002b0: f9b7 8a3d 7029 443d 0a52 ee3d a40f 7fbc
000002c0: 7b1e ec3d 5072 1c3e d51a 063e 6dbf e73d
000002d0: 838e 933b 4f5a 643d 3191 3a3d 1fb8 a13d
000002e0: 0ece b43d de4c b4bd fda2 82bb bf9b 02bd
000002f0: a7b5 4ebc 6502 e33c 01c1 a73b 5910 21bd
00000300: 7278 173c dac4 1b3e f16c 80bd b495 3d3c
00000310: 4c0d 3d3d c734 6cbb 5dee 92bd 368b c53d
00000320: 9846 2fbd 5d06 f53c b6ff 7fbd 4557 403d
00000330: fa52 903b e5eb 67bd 15e3 a9bd 9c57 03be
00000340: 2f9c a9bd d4d9 1cbe 2074 26bd 3a56 8fbd
00000350: d2c2 4abd aafd c8bc a96f e5bd 6101 0bbe
00000360: 4cad b13d a16f cc3d 2c28 113b ffc1 cebd
00000370: 8893 98bc e384 123e 6840 8b3c 6f5d e7bd
00000380: 482f da3d 9adc 39bd dc22 b9bd ec93 e1bd
00000390: 671f b6bd 3b21 dabc 7255 69bd bcba f3bd
000003a0: 391d bebd eaca f03c 54ca f1bd 1697 b0bd
000003b0: 249c 88bc b659 3bbd 3191 1abd e8a7 683d
000003c0: 352a 71bd a53d 33bd 99c8 59bd 61a3 853c
000003d0: ce0d 103c e7cf 093d bd6c 1dbd dd8f 23bc
000003e0: f63d 223d 0d4f 1e3d bdb9 a1bb 701c 90bd
000003f0: 561e bcbd 5eb9 103b 8e16 67bd 3ac2 be3d

fem.conv.bias f4 [16]
0.07874948 0.06799505 0.03864068 0.10596496 0.037520207 0.076656185 -0.017746074 -0.023876235
0.01751725 -0.091269135 -0.08587129 0.022489442 -0.016270226 0.010902838 0.047284745 -0.12080339
00000000: 6847 a13d fd40 8b3d b145 1e3d 2804 d93d
00000010: caae 193d ebfd 9c3d 3760 91bc 1898 c3bc
00000020: 5680 8f3c 50eb babd 49dd afbd c73b b83c
00000030: 2349 85bc d1a1 323c a6ad 413d c567 f7bd

fem.bn.weight f4 [16]
0.93220055 0.9861895 1.0221754 0.9076231 0.88268363 0.84829533 0.87329364 0.9157699
0.8971968 0.8949263 0.9311083 1.060685 0.89658684 0.8799154 0.8714724 0.9494497
00000000: b2a4 6e3f ea76 7c3f a5d6 823f fd59 683f
00000010: 8ef7 613f e229 593f 2c90 5f3f e56f 6a3f
00000020: b1ae 653f e419 653f 1d5d 6e3f 87c4 873f
00000030: b786 653f 2342 613f d118 5f3f 230f 733f

fem.bn.bias f4 [16]
-0.21694268 0.076373555 0.20800646 -0.2317787 0.04940122 0.25529754 0.22209832 -0.16800846
-0.20480067 0.20854074 0.19026248 -0.26618585 -0.16066583 0.21010493 0.21961342 0.21334678
00000000: 3926 5ebe bd69 9c3d a5ff 543e 6557 6dbe
00000010: ef58 4a3d 5cb6 823e be6d 633e 690a 2cbe
00000020: 44b7 51be b48b 553e 2bd4 423e 8349 88be
00000030: 9585 24be bf25 573e 57e2 603e 9477 5a3e

fem.bn.running_mean f4 [16]
1.8209251 0.44621283 0.5138128 1.2288128 0.111089215 1.007665 1.9941399 0.0050735935
-1.9232506 0.18088503 0.23569456 2.4892502 0.20923555 0.19567508 -0.07352624 1.6693271
00000000: 1314 e93f 0276 e43e 3c89 033f bd49 9d3f
00000010: be82 e33d 2bfb 803f fa3f ff3f 6340 a63b
00000020: 132d f6bf ed39 393e ea59 713e e04f 1f40
00000030: d841 563e 0c5f 483e ed94 96bd 83ac d53f

fem.bn.running_var f4 [16]
6.406127 2.029411 2.7371895 11.800356 0.9779773 3.9695494 11.990554 8.1194315
9.494881 4.638953 3.529726 9.308586 8.460352 4.8773146 5.692771 8.662028
00000000: fefe cc40 dfe1 0140 1d2e 2f40 42ce 3c41
00000010: b85c 7a3f 190d 7e40 4fd9 3f41 31e9 0141
00000020: 08eb 1741 4e72 9440 08e7 6140 f8ef 1441
00000030: 9a5d 0741 f612 9c40 2e2b b640 ab97 0a41

cam.fc.0.weight f4 [4, 16, 1, 1]
0.18870184 0.12466679 -0.0699321 0.16052642 -0.09517381 0.2455132 0.03249629 0.27944472
-0.039791796 0.14258823 0.0179086 -0.0064909807 -0.14116764 -0.10531153 0.010921937 0.24457213
-0.02127902 -0.085450545 0.06369266 0.2910036 0.1033828 -0.30516994 -0.22556013 0.07079693
0.29063088 0.174962 -0.11996811 -0.23307867 -0.22801423 -0.15528888 -0.09088144 0.0016658637
0.18828009 0.00032952343 -0.27551368 -0.16962266 0.19045007 -0.35038155 -0.13781327 0.066915
-0.18330352 -0.20310791 0.17564364 0.05752387 0.051324565 0.19519913 -0.10112708 -0.19576567
0.09567281 -0.119907476 0.20996012 0.27244088 -0.23246974 -0.17673413 0.19456853 0.037927818
-0.41655993 -0.13354681 -0.107083805 0.2718482 0.057253554 0.02761945 -0.07321786 0.18050247
00000000: 0e3b 413e 4d51 ff3d 9038 8fbd 0a61 243e
00000010: 7dea c2bd d067 7b3e d41a 053d 6113 8f3e
00000020: b9fc 22bd a602 123e 0eb5 923c 4bb2 d4bb
00000030: 408e 10be 92ad d7bd edf1 323c 1e71 7a3e
00000040: 5751 aebc b200 afbd 4c71 823d 6dfe 943e
00000050: 5dba d33d 3c3f 9cbe 3cf9 66be fbfd 903d
00000060: 92cd 943e 3d29 333e d7b1 f5bd 2dac 6ebe
00000070: 907c 69be 0c04 1fbe 0c20 babd 1c59 da3a
00000080: 7fcc 403e e3c3 ac39 2110 8dbe 90b1 2dbe
00000090: 5805 433e 3665 b3be ec1e 0dbe bb0a 893d
000000a0: ebb3 3bbe 85fb 4fbe eddb 333e 269e 6b3d
000000b0: b539 523d 48e2 473e b71b cfbd cc76 48be
000000c0: 1bf0 c33d 0d92 f5bd c9ff 563e 5f7d 8b3e
000000d0: 8c0c 6ebe cbf9 34be f93c 473e 335a 1b3d
000000e0: 5847 d5be 7fc0 08be c14e dbbd b02f 8b3e
000000f0: b482 6a3d 2f42 e23c 3ff3 95bd a4d5 383e

cam.fc.0.bias f4 [4]
0.08616568 0.006719939 -0.019744365 0.051239356
00000000: a277 b03d ef32 dc3b efbe a1bc 5ce0 513d

cam.fc.2.weight f4 [16, 4, 1, 1]
-0.07200872 0.0020713233 0.1783715 -0.176316 0.2890639 -0.470177 -0.32401532 0.20023362
-0.14430968 0.19020043 -0.11259873 -0.5261757 0.010273923 -0.17372642 0.16693199 -0.2902535
-0.6442689 -0.7627935 -0.65727234 0.49865374 -0.31303784 0.27813372 0.15331505 -0.18345246
-0.3699989 0.13944234 0.25321043 0.2911778 -0.31165034 -0.43267983 -0.63778967 0.1868215
0.38105917 -0.50254405 -0.036242492 0.31077024 0.1185936 0.1813817 0.18148118 -0.40264317
-0.17768815 -0.73566157 -0.5171742 -0.09464839 -0.5996882 0.17966107 -0.013100398 0.3551044
0.05129694 0.09962669 0.33379167 0.24567556 0.013556147 -0.13001966 0.25052935 0.008938283
-0.43290687 -0.20404418 -0.28535515 -0.52946806 -0.09086211 0.3851813 0.36338794 -0.06919982
00000000: 4f79 93bd 0abf 073b 05a7 363e 2e8c 34be
00000010: 2f00 943e 0abb f0be 56e5 a5be 0b0a 4d3e
00000020: ebc5 13be e7c3 423e 2a9a e6bd 73b3 06bf
00000030: f553 283c 57e5 31be 38f0 2a3e 1b9c 94be
00000040: ceee 24bf 6f46 43bf 0043 28bf 8b4f ff3e
00000050: 7f46 a0be 8b67 8e3e 9ffe 1c3e f6da 3bbe
00000060: 7f70 bdbe f9c9 0e3e cca4 813e 4215 953e
00000070: a290 9fbe 3688 ddbe 2f46 23bf 234e 3f3e
00000080: 301a c33e baa6 00bf 0273 14bd 471d 9f3e
00000090: 34e1 f23d 20bc 393e 34d6 393e 3f27 cebe
000000a0: e2f3 35be 5154 3cbf 8765 04bf 04d7 c1bd
000000b0: 2a85 19bf 12f9 373e 0da3 56bc 3ed0 b53e
000000c0: bd1c 523d 1409 cc3d bee6 aa3e 6092 7b3e
000000d0: 9a1a 5e3c e023 05be 6245 803e e071 123c
000000e0: f8a5 ddbe f5f0 50be 121a 92be 388b 07bf
000000f0: ea15 babd 7c36 c53e fc0d ba3e a3b8 8dbd

cam.fc.2.bias f4 [16]
-0.34335777 0.19088541 -0.39217564 -0.21757306 -0.5250295 -0.22082661 -0.3154631 -0.2048086
-0.21534443 -0.20261809 -0.016882773 -0.20593274 0.013514427 -0.43286163 -0.007833921 -0.14828584
00000000: 97cc afbe 7777 433e 3fcb c8be 79cb 5ebe
00000010: 5568 06bf 5f20 62be 6184 a1be 58b9 51be
00000020: 4083 5cbe 1e7b 4fbe be4d 8abc 08e0 52be
00000030: 9d6b 5d3c 0aa0 ddbe d959 00bc 3ed8 17be

sam.body.0.weight f4 [4, 16, 3, 3]
0.044251107 -0.08536605 0.03331609 0.0709781 -0.008514267 0.0719415 0.046999224 0.050397627
-0.018579783 0.21516736 0.0746529 0.017335875 0.11720736 -0.016937131 0.121151425 0.021801768
0.024489263 0.05477641 -0.053642813 0.07748877 0.12625836 -0.03527296 -0.04109232 -0.0034531737
0.037359778 0.08577807 0.06789089 -0.014027545 -0.070135385 -0.043387685 0.078754574 0.020902013
0.06969005 0.056487165 -0.01761242 -0.0069309617 0.116404906 -0.0033522607 -0.038700428 -0.104369394
-0.022758644 0.0036693253 0.05385419 0.12183371 -0.12163802 -0.06995091 -0.047381744 0.003121704
0.025648296 -0.057916008 -0.023523873 -0.028206183 -0.062602684 -0.0409198 -0.07989878 0.008941658
-0.12805215 -0.00052313466 -0.086147524 -0.067143455 -0.013957944 -0.07758602 -0.12125005 -0.0585305
0.032792266 0.024292516 0.009571292 0.025323506 -0.010884557 0.0446979 0.07715517 0.0662155
-0.04641748 0.05650734 -0.026719311 -0.020256208 -0.0024100335 0.11729624 0.043513585 0.039129183
0.026117515 -0.06735179 -0.069574304 -0.13551979 -0.11609032 0.010581025 -0.11232047 -0.0692362
-0.12372425 -0.09934797 -0.06027046 0.03442874 -0.11510764 0.040874824 0.07173423 -0.009656304
0.027645998 0.002763628 0.03464877 -0.071051195 0.074363746 0.08035992 -0.09236166 0.034250937
0.047851503 -0.03672757 -0.059919216 0.10207826 0.02854366 -0.06683314 -0.007081192 0.024327457
-0.0122718 0.002753801 -0.055322956 -0.021645367 0.018417241 -0.0705892 -0.17087235 -0.15508346
0.045043267 -0.06080493 -0.15422022 -0.09544451 -0.1448788 -0.09029042 -0.032500464 -0.10486253
-0.25384212 -0.037345793 -0.17495154 -0.2182599 -0.15433548 -0.047910176 -0.1552609 0.021195501
0.07613636 0.08005275 -0.060286585 0.052572213 -0.036421396 -0.047230016 -0.1049407 0.0051446036
-0.10558602 -0.058646463 0.00032093664 -0.020208672 0.06132694 -0.07683932 -0.052287623 -0.07304798
-0.009095447 0.14216891 0.055293612 0.13763373 0.16003136 0.13881001 0.07043596 0.058236875
0.063253984 0.06384871 0.14653367 0.10179752 0.20922925 -0.014012804 0.14391848 0.028779797
0.16568255 0.11174216 0.06179164 -0.066871546 -0.025234584 -0.09638384 0.039923914 -0.0210923
0.03603725 -0.019301556 -0.047518935 -0.033774074 -0.022490475 -0.06371895 0.018693851 0.10804531
0.05366327 -0.022591284 0.05188514 -0.021900563 -0.115771845 -0.052713066 -0.09057228 -0.054242484
-0.07225378 0.06290663 0.040683378 0.075496316 0.03463894 -0.01900987 -0.0024717597 0.013461681
-0.029771063 0.06789778 -0.02195505 0.04200244 -0.019622028 -0.0631073 0.0071194284 -0.12834586
-0.12217753 0.012506931 -0.106691346 0.004239106 -0.10816841 0.010246417 -0.07828441 -0.16770542
-0.0011426662 0.02729484 0.081735305 0.11057723 0.11562132 0.03016428 0.077612385 -0.003866108
0.092300765 -0.06825292 -0.06202859 -0.1505898 -0.0345853 -0.09983512 -0.016650654 -0.17659886
-0.10516458 -0.091753304 -0.024068736 0.06538929 -0.022974957 -0.020379877 -0.05573787 -0.07984454
-0.028791584 -0.03095988 -0.07815589 -0.1324346 -0.101302385 -0.122487366 -0.066910274 -0.15629523
-0.014102271 -0.078194015 -0.082772516 -0.089446396 -0.07965463 0.014224266 -0.09600091 -0.016428357
00000000: a640 353d 65d4 aebd 7476 083d f75c 913d
00000010: 6d7f 0bbc 1156 933d 4282 403d be6d 4e3d
00000020: a134 98bc d554 5c3e 9fe3 983d f703 8e3c
00000030: 6a0a f03d bdbf 8abc 3d1e f83d 9f99 b23c
00000040: b59d c83c 3b5d 603d 91b8 5bbd 6fb2 9e3d
00000050: df49 013e 617a 10bd 6c50 28bd a44e 62bb
00000060: 9106 193d 6aac af3d 610a 8b3d cad3 65bc
00000070: 24a3 8fbd 49b7 31bd 144a a13d b33a ab3c
00000080: a8b9 8e3d 165f 673d ec47 90bc 1f1d e3bb
00000090: b265 ee3d 9ab1 5bbb 5784 1ebd 9fbf d5bd
000000a0: 5670 babc 1079 703b 3696 5c3d f483 f93d
000000b0: 5b1d f9bd 6c42 8fbd 5c13 42bd 8195 4c3b
000000c0: 601c d23c 5639 6dbd 23b5 c0bc a710 e7bc
000000d0: d635 80bd 859b 27bd f9a1 a3bd 0880 123c
000000e0: 1a20 03be f922 09ba 1d6e b0bd 8282 89bd
000000f0: dcaf 64bc 6be5 9ebd f251 f8bd adbd 6fbd
00000100: 2f51 063d 1901 c73c e9d0 1c3c 3e73 cf3c
00000110: 2455 32bc 2515 373d 8803 9e3d fe9b 873d
00000120: 4120 3ebd 3e74 673d 75e2 dabc 59f0 a5bc
00000130: a7f1 1dbb 0339 f03d 4d3b 323d ec45 203d
00000140: 66f4 d53c bcef 89bd f97c 8ebd b3c5 0abe
00000150: c3c0 edbd 095c 2d3c 4608 e6bd b5cb 8dbd
00000160: 2463 fdbd f376 cbbd 28de 76bd 2705 0d3d
00000170: 8ebd ebbd 5c6c 273d 65e9 923d 7935 1ebc
00000180: dc79 e23c fc1d 353b deeb 0d3d 4a83 91bd
00000190: 054c 983d be93 a43d 1c28 bdbd b64a 0c3d
000001a0: f0ff 433d a66f 16bd da6d 75bd 680e d13d
000001b0: 65d4 e93c d0df 88bd 5809 e8bb 604a c73c
000001c0: a90f 49bc 1d79 343b 539a 62bd a051 b1bc
000001d0: c1df 963c 1291 90bd 29f9 2ebe 33ce 1ebe
000001e0: 4a7f 383d 970e 79bd e8eb 1dbe 6978 c3bd
000001f0: 1c5b 14be 2fea b8bd 351f 05bd 2bc2 d6bd
00000200: 98f7 81be e7f7 18bd 7f26 33be 867f 5fbe
00000210: 1f0a 1ebe 763d 44bd b7fc 1ebe 30a2 ad3c
00000220: 61ed 9b3d b2f2 a33d 11ef 76bd f655 573d
00000230: 9a2e 15bd 4374 41bd 26eb d6bd 1094 a83b
00000240: 7c3d d8bd 4637 70bd 6343 a839 a88c a5bc
00000250: f531 7b3d ef5d 9dbd 8c2b 56bd 2e9a 95bd
00000260: 1205 15bc ba94 113e 8e7b 623d dbef 0c3e
00000270: 43df 233e 3624 0e3e bb40 903d ca89 6e3d
00000280: 4e8b 813d 1dc3 823d ec0c 163e 387b d03d
00000290: 3140 563e f695 65bc 5e5f 133e 9cc3 eb3c
000002a0: b0a8 293e 13d9 e43d 3b19 7d3d f3f3 88bd
000002b0: c2b8 cebc e464 c5bd 4287 233d c2c9 acbc
000002c0: cc9b 133d 4c1e 9ebc 37a3 42bd af56 0abd
000002d0: f23d b8bc 157f 82bd d923 993c dc46 dd3d
000002e0: 04ce 5b3d 5b11 b9bc 8385 543d cf68 b3bc
000002f0: ca19 edbd a8e9 57bd f67d b9bd 5e2d 5ebd
00000300: caf9 93bd 31d5 803d 9da3 263d d09d 9a3d
00000310: 90e1 0d3d 96ba 9bbc 3ffd 21bb 628e 5c3c
00000320: 72e2 f3bc fe0d 8b3d 14db b3bc c00a 2c3d
00000330: 60be a0bc 663e 81bd 184a e93b 196d 03be
00000340: 3638 fabd dfe9 4c3c fe80 dabd 33e8 8a3b
00000350: 6687 ddbd 96e0 273c 9453 a0bd f8ba 2bbe
00000360: 84c5 95ba 6e99 df3c d764 a73d 5176 e23d
00000370: dfca ec3d 151b f73c 3ef3 9e3d 875e 7dbb
00000380: 2f08 bd3d 30c8 8bbd b111 7ebd 3634 1abe
00000390: 51a9 0dbd 5b76 ccbd f466 88bc 55d6 34be
000003a0: 8760 d7bd 28e9 bbbd cc2b c5bc d2ea 853d
000003b0: fa35 bcbc b3f3 a6bc 654d 64bd 8985 a3bd
000003c0: 54dc ebbc 939f fdbc 3210 a0bd f09c 07be
000003d0: a077 cfbd a8da fabd 4108 89bd db0b 20be
000003e0: 360d 67bc 2f24 a0bd a384 a9bd ac2f b7bd
000003f0: f721 a3bd e50c 693c 209c c4bd c394 86bc

sam.body.0.bias f4 [4]
-0.03148274 -0.08896597 0.054752965 0.06888296
00000000: 0cf4 00bd ca33 b6bd a544 603d 8212 8d3d

sam.body.1.weight f4 [4]
0.89581746 0.92097366 1.0289472 1.0364999
00000000: 4b54 653f eec4 6b3f 8bb4 833f 07ac 843f

sam.body.1.bias f4 [4]
-0.22672519 -0.16335121 0.22405623 -0.32411745
00000000: a62a 68be 8a45 27be ff6e 653e b9f2 a5be

sam.body.1.running_mean f4 [4]
-0.8731782 0.16847542 -0.08955625 0.03511774
00000000: 9b88 5fbf d284 2c3e 4469 b7bd 9fd7 0f3d

sam.body.1.running_var f4 [4]
4.338917 3.2307549 1.2881899 1.423192
00000000: 68d8 8a40 b0c4 4e40 68e3 a43f 282b b63f

sam.body.3.weight f4 [1, 4, 3, 3]
-0.09061058 0.036919218 -0.043410942 -0.120500386 0.093291104 0.06416007 -0.14957255 0.11549693
-0.11822616 0.08193827 -0.016191203 -0.09814022 -0.095314346 -0.06629008 -0.097256824 -0.06416358
-0.009981438 -0.031140061 -0.01082108 -0.011981143 -0.1458442 0.076230176 0.2851356 0.13495179
-0.119308494 0.13873222 -0.11004856 0.016705858 -0.07430647 -0.014249272 0.27203643 0.2738732
-0.07664438 0.0101620015 -0.13779362 0.021591084
00000000: 0a92 b9bd 9b38 173d accf 31bd e8c8 f6bd
00000010: 680f bf3d 5b66 833d 8c29 19be a889 ec3d
00000020: 8f20 f2bd 40cf a73d 6aa3 84bc bdfd c8bd
00000030: 2b34 c3bd 18c3 87bd 962e c7bd 3268 83bd
00000040: 2f89 23bc 7119 ffbc e64a 31bc 8e4c 44bc
00000050: 2f58 15be 911e 9c3d 4bfd 913e cd30 0a3e
00000060: 0358 f4bd d20f 0e3e 2461 e1bd b9da 883c
00000070: fe2d 98bd c775 69bc 5c48 8b3e 1c39 8c3e
00000080: bbf7 9cbd 867e 263c c519 0dbe c9df b03c

patch_embed.norm.weight f4 [96]
1.0 1.0 1.0 1.0 1.0 1.0 1.0 1.0
1.0 1.0 1.0 1.0 1.0 1.0 1.0 1.0
1.0 1.0 1.0 1.0 1.0 1.0 1.0 1.0
1.0 1.0 1.0 1.0 1.0 1.0 1.0 1.0
1.0 1.0 1.0 1.0 1.0 1.0 1.0 1.0
1.0 1.0 1.0 1.0 1.0 1.0 1.0 1.0
1.0 1.0 1.0 1.0 1.0 1.0 1.0 1.0
1.0 1.0 1.0 1.0 1.0 1.0 1.0 1.0
1.0 1.0 1.0 1.0 1.0 1.0 1.0 1.0
1.0 1.0 1.0 1.0 1.0 1.0 1.0 1.0
1.0 1.0 1.0 1.0 1.0 1.0 1.0 1.0
1.0 1.0 1.0 1.0 1.0 1.0 1.0 1.0
00000000: 0000 803f 0000 803f 0000 803f 0000 803f
00000010: 0000 803f 0000 803f 0000 803f 0000 803f
00000020: 0000 803f 0000 803f 0000 803f 0000 803f
00000030: 0000 803f 0000 803f 0000 803f 0000 803f
00000040: 0000 803f 0000 803f 0000 803f 0000 803f
00000050: 0000 803f 0000 803f 0000 803f 0000 803f
00000060: 0000 803f 0000 803f 0000 803f 0000 803f
00000070: 0000 803f 0000 803f 0000 803f 0000 803f
00000080: 0000 803f 0000 803f 0000 803f 0000 803f
00000090: 0000 803f 0000 803f 0000 803f 0000 803f
000000a0: 0000 803f 0000 803f 0000 803f 0000 803f
000000b0: 0000 803f 0000 803f 0000 803f 0000 803f
000000c0: 0000 803f 0000 803f 0000 803f 0000 803f
000000d0: 0000 803f 0000 803f 0000 803f 0000 803f
000000e0: 0000 803f 0000 803f 0000 803f 0000 803f
000000f0: 0000 803f 0000 803f 0000 803f 0000 803f
00000100: 0000 803f 0000 803f 0000 803f 0000 803f
00000110: 0000 803f 0000 803f 0000 803f 0000 803f
00000120: 0000 803f 0000 803f 0000 803f 0000 803f
00000130: 0000 803f 0000 803f 0000 803f 0000 803f
00000140: 0000 803f 0000 803f 0000 803f 0000 803f
00000150: 0000 803f 0000 803f 0000 803f 0000 803f
00000160: 0000 803f 0000 803f 0000 803f 0000 803f
00000170: 0000 803f 0000 803f 0000 803f 0000 803f

patch_embed.norm.bias f4 [96]
0.0 0.0 0.0 0.0 0.0 0.0 0.0 0.0
0.0 0.0 0.0 0.0 0.0 0.0 0.0 0.0
0.0 0.0 0.0 0.0 0.0 0.0 0.0 0.0
0.0 0.0 0.0 0.0 0.0 0.0 0.0 0.0
0.0 0.0 0.0 0.0 0.0 0.0 0.0 0.0
0.0 0.0 0.0 0.0 0.0 0.0 0.0 0.0
0.0 0.0 0.0 0.0 0.0 0.0 0.0 0.0
0.0 0.0 0.0 0.0 0.0 0.0 0.0 0.0
0.0 0.0 0.0 0.0 0.0 0.0 0.0 0.0
0.0 0.0 0.0 0.0 0.0 0.0 0.0 0.0
0.0 0.0 0.0 0.0 0.0 0.0 0.0 0.0
0.0 0.0 0.0 0.0 0.0 0.0 0.0 0.0
00000000: 0000 0000 0000 0000 0000 0000 0000 0000
00000010: 0000 0000 0000 0000 0000 0000 0000 0000
00000020: 0000 0000 0000 0000 0000 0000 0000 0000
00000030: 0000 0000 0000 0000 0000 0000 0000 0000
00000040: 0000 0000 0000 0000 0000 0000 0000 0000
00000050: 0000 0000 0000 0000 0000 0000 0000 0000
00000060: 0000 0000 0000 0000 0000 0000 0000 0000
00000070: 0000 0000 0000 0000 0000 0000 0000 0000
00000080: 0000 0000 0000 0000 0000 0000 0000 0000
00000090: 0000 0000 0000 0000 0000 0000 0000 0000
000000a0: 0000 0000 0000 0000 0000 0000 0000 0000
000000b0: 0000 0000 0000 0000 0000 0000 0000 0000
000000c0: 0000 0000 0000 0000 0000 0000 0000 0000
000000d0: 0000 0000 0000 0000 0000 0000 0000 0000
000000e0: 0000 0000 0000 0000 0000 0000 0000 0000
000000f0: 0000 0000 0000 0000 0000 0000 0000 0000
00000100: 0000 0000 0000 0000 0000 0000 0000 0000
00000110: 0000 0000 0000 0000 0000 0000 0000 0000
00000120: 0000 0000 0000 0000 0000 0000 0000 0000
00000130: 0000 0000 0000 0000 0000 0000 0000 0000
00000140: 0000 0000 0000 0000 0000 0000 0000 0000
00000150: 0000 0000 0000 0000 0000 0000 0000 0000
00000160: 0000 0000 0000 0000 0000 0000 0000 0000
00000170: 0000 0000 0000 0000 0000 0000 0000 0000

basicLayer.blocks.0.norm1.weight f4 [16]
0.6039103 0.6725653 0.6559275 0.62590975 0.6521731 0.6402877 0.44959676 0.6111254
0.6101753 0.5660226 0.7068157 0.5547728 0.65125394 0.5869777 0.71578 0.6774727
00000000: de99 1a3f 3d2d 2c3f ddea 273f 9f3b 203f
00000010: d1f4 263f e5e9 233f 8c31 e63e b772 1c3f
00000020: 7334 1c3f dbe6 103f e0f1 343f 9705 0e3f
00000030: 94b8 263f 2c44 163f 5c3d 373f da6e 2d3f

basicLayer.blocks.0.norm1.bias f4 [16]
0.03864059 -0.027254123 -0.009622376 0.04626809 -0.012017514 0.018838117 0.012312179 -0.006389953
0.024990397 0.037245348 0.03966068 -0.015532653 0.030691385 -0.004406324 0.016584603 -0.045368277
00000000: 9845 1e3d 0a44 dfbc 2ca7 1dbc 9c83 3d3d
00000010: 1be5 44bc 6552 9a3c 06b9 493c d062 d1bb
00000020: a9b8 cc3c 948e 183d 3d73 223d ab7c 7ebc
00000030: 806c fb3c ed62 90bb 6fdc 873c 16d4 39bd

basicLayer.blocks.0.attn.relative_position_bias_table f4 [1, 8]
0.01983806 0.008325738 -0.021547737 -0.047930438 0.013673397 -0.0038906995 0.025699478 -0.009555346
00000000: 6d83 a23c ad68 083c e184 b0bc b552 44bd
00000010: 6206 603c 1bfb 7ebb b687 d23c 078e 1cbc

basicLayer.blocks.0.attn.qkv.weight f4 [48, 16]
-0.22158065 0.18276814 -0.1894798 0.15940738 0.021825582 0.17477512 -0.083755195 0.06389329
-0.08120757 -0.16902947 -0.2079013 0.0051080883 -0.09842044 0.041144192 -0.14988491 0.17834592
0.12860891 -0.092903286 0.051059365 0.24079353 0.24542004 -0.18958175 -0.2469598 -0.04718843
-0.168639 0.20734292 -0.09530035 -0.24548912 0.23503456 -0.07537031 -0.2046395 0.20784515
-0.04239154 0.036226183 0.08526391 0.03815046 -0.14950803 -0.057458133 -0.17584863 -0.16657731
0.22308141 0.19291681 0.21570504 -0.052886486 -0.16641143 0.15388331 0.18965855 0.075154334
-0.22267085 -0.03827387 -0.13082814 0.11235738 -0.22465664 -0.041054904 -0.15841049 0.09106836
0.20216227 0.0829418 -0.16447502 0.065442026 0.088309735 0.08813751 -0.05577746 0.011143565
-0.028576344 -0.19890413 0.14155611 -0.09611258 0.17450544 0.018172175 -0.18704876 0.13869643
-0.21692023 0.15194127 -0.013470292 0.16291285 -0.07455465 -0.23506296 0.20259726 -0.1990465
-0.09693408 -0.13746321 -0.23166004 -0.21775913 -0.16718224 0.013848156 0.14621758 -0.0010971725
-0.10074121 0.14467326 -0.21326852 -0.0043391883 0.16374442 0.1468279 -0.030774206 0.10404956
-0.24339497 -0.05913037 0.04361099 0.089529544 -0.016209334 0.10608062 0.16479003 0.095576644
-0.05483535 -0.13741943 -0.06216529 -0.11195916 0.14432374 -0.11921808 -0.1285924 0.100572705
-0.1828517 -0.082911074 0.15530238 0.059916466 -0.02394259 0.16971225 0.20601323 0.16427556
0.109574616 -0.001424551 -0.15603602 -0.082099795 -0.1127449 0.069215626 -0.14083523 -0.13065356
0.13987681 -0.0034188032 -0.23722646 -0.0699355 -0.0013482571 -0.2024971 0.17641461 -0.04988712
-0.15198952 -0.0011389554 0.24283433 0.056523412 -0.0979718 0.14460015 -0.09769052 0.1554321
-0.23207098 -0.15414667 0.12778103 -0.103899926 -0.13137236 -0.005578488 -0.010393947 0.024692625
-0.13214248 0.18499616 0.24286354 -0.08365235 -0.177066 -0.23140907 -0.07768673 -0.15853563
-0.10269612 -0.040723026 0.1893596 0.0113298 0.2272329 -0.11025515 0.2434138 0.06579402
-0.16154787 0.10736972 0.08891657 0.20099139 0.20306507 0.049512714 -0.11193177 -0.12715882
0.07221335 -0.124635756 0.18367985 -0.06749332 0.10745141 -0.23979777 -0.17220744 -0.23413324
0.047497034 -0.23752779 0.051178187 0.048148125 0.20379606 -0.09876868 -0.24730387 0.012806982
-0.0048980415 0.111332536 0.024009615 -0.011594057 0.13479757 0.071817905 0.042724967 -0.23540825
-0.04696709 0.049321026 -0.10145986 -0.1279043 0.22661528 0.0758872 0.014139831 -0.22212285
0.05390337 -0.07285535 0.18907458 -0.23754793 -0.23944691 0.037523925 -0.07763332 0.024479419
0.08349773 0.024740487 -0.24741215 0.027253151 0.044875145 0.24689165 0.14247671 -0.15046808
-0.10267156 -0.117667556 0.09795311 0.19514513 0.01650101 0.24313387 0.019335687 -0.031632453
-0.22080642 -0.08237803 0.23217201 -0.19469976 -0.1952608 -0.051888466 0.05349067 -0.18143839
-0.055957973 0.1116789 0.18369657 0.23703691 0.02025503 -0.068368286 0.05733022 -0.24846104
0.089477986 0.21343997 0.14027867 0.21373576 0.0961653 0.018886924 -0.11278543 0.14900225
00000000: 0ae6 62be 9227 3b3e fe06 42be b03b 233e
00000010: 90cb b23c 40f8 323e d887 abbd 7cda 823d
00000020: 2850 a6bd 1016 2dbe 14e4 54be c061 a73b
00000030: a890 c9bd d086 283d 6e7b 19be 50a0 363e
00000040: 0eb2 033e 1444 bebd a023 513d 9492 763e
00000050: 644f 7b3e b821 42be 08e3 7cbe a848 41bd
00000060: b4af 2cbe b451 543e d42c c3bd 8061 7bbe
00000070: e6ac 703e c05b 9abd 048d 51be 5cd5 543e
00000080: c0a2 2dbd e861 143d d89e ae3d a843 1c3d
00000090: a218 19be 3859 6bbd aa11 34be 3e93 2abe
000000a0: 746f 643e fc8b 453e c8e1 5c3e 809f 58bd
000000b0: c267 2abe 9693 1d3e da35 423e 84ea 993d
000000c0: d403 64be 10c5 1cbd d0f7 05be a01b e63d
000000d0: 640c 66be 3029 28bd 5c36 22be 0c82 ba3d
000000e0: a003 4f3e 64dd a93d 246c 28be 7806 863d
000000f0: bcdb b43d 7081 b43d e876 64bd 8093 363c
00000100: f018 eabc 86ad 4bbe 16f4 103e acd6 c4bd
00000110: 8eb1 323e d0dd 943c b689 3fbe 7006 0e3e
00000120: 5620 5ebe 7e96 1b3e 80b2 5cbc a0d2 263e
00000130: 1cb0 98bd 58b4 70be a875 4f3e d8d2 4bbe
00000140: 6085 c6bd 28c3 0cbe 4a38 6dbe 40fc 5ebe
00000150: d231 2bbe 60e3 623c 10ba 153e 00cf 8fba
00000160: 6851 cebd 3a25 143e 1063 5abe c02f 8ebb
00000170: 9eac 273e 0e5a 163e 301a fcbc f017 d53d
00000180: 883c 79be b032 72bd 70a1 323d 445b b73d
00000190: 70c9 84bc cc40 d93d b8be 283e b0bd c33d
000001a0: 089b 60bd aeb7 0cbe 08a1 7ebd d84a e5bd
000001b0: 9ac9 133e 9c28 f4bd baad 03be 10f9 cd3d
000001c0: 7a3d 3bbe 48cd a9bd 9607 1f3e f86a 753d
000001d0: 4023 c4bc 0cc9 2d3e 22f5 523e da37 283e
000001e0: a868 e03d 00b8 baba e8c7 1fbe f023 a8bd
000001f0: cce6 e6bd ecc0 8d3d 1c37 10be 0cca 05be
00000200: de3b 0f3e 000e 60bb 7eeb 72be 583a 8fbd
00000210: 00b8 b0ba 665b 4fbe 08a6 343e 7056 4cbd
00000220: 24a3 1bbe 0049 95ba 90a9 783e 1885 673d
00000230: 70a5 c8bd 1012 143e f811 c8bd 9829 1f3e
00000240: 04a4 6dbe a0d8 1dbe 08d9 023e 7cc9 d4bd
00000250: 7a86 06be c0cb b6bb 604b 2abc 3048 ca3c
00000260: 5c50 07be a26f 3d3e 38b1 783e ec51 abbd
00000270: ca50 35be 80f6 6cbe 381a 9fbd 2a57 22be
00000280: 5852 d2bd 30cd 26bd 7ce7 413e a0a0 393c
00000290: beaf 683e 74cd e1bd 7841 793e 04bf 863d
000002a0: ce6c 25be a8e4 db3d e419 b63d b0d0 4d3e
000002b0: 4af0 4f3e d8cd 4a3d 7c3c e5bd ec35 02be
000002c0: 98e4 933d 0841 ffbd 9216 3c3e f039 8abd
000002d0: 7c0f dc3d 8c8d 75be 2657 30be a0c0 6fbe
000002e0: 408c 423d 7c3a 73be 38a0 513d f836 453d
000002f0: eaaf 503e 3c47 cabd 3a3d 7dbe 60d4 513c
00000300: c07f a0bb 5002 e43d d0af c43c 00f5 3dbc
00000310: 6008 0a3e 4415 933d 6000 2f3d dc0e 71be
00000320: 9060 40bd d804 4a3d 30ca cfbd 58f9 02be
00000330: d60d 683e c06a 9b3d c0aa 673c 2c74 63be
00000340: c8c9 5c3d 3035 95bd c49c 413e c43f 73be
00000350: 9231 75be b0b2 193d 38fe 9ebd 1089 c83c
00000360: dc00 ab3d 90ac ca3c 9c59 7dbe 0042 df3c
00000370: 00cf 373d 2ad1 7c3e 6ae5 113e 4e14 1abe
00000380: 7845 d2bd b0fb f0bd a49b c83d 20d4 473e
00000390: 202d 873c 16f8 783e e065 9e3c 0891 01bd
000003a0: 141b 62be d0b5 a8bd 80be 6d3e 605f 47be
000003b0: 72f2 47be 0089 54bd 0819 5b3d fcca 39be
000003c0: 3034 65bd e8b7 e43d f41a 3c3e ceb9 723e
000003d0: e0ed a53c ac04 8cbd 18d3 6a3d 926c 7ebe
000003e0: 3c40 b73d 0290 5a3e 36a5 0f3e 8cdd 5a3e
000003f0: 50f2 c43d c0b8 9a3c 0cfc e6bd 0c94 183e

basicLayer.blocks.0.attn.qkv.bias f4 [48]
0.052535385 -0.112766266 0.120411664 -0.08846578 -0.13273507 -0.16298532 0.06842375 -0.092683345
0.09467301 -0.201175 -0.22160098 0.11826244 -0.24132901 -0.14016187 0.11904359 -0.05210802
-0.071894616 -0.17521435 0.052322865 0.13920876 0.1705946 0.23858577 -0.1507935 -0.24249679
-0.023251295 -0.15072984 -0.24721757 -0.06600112 0.21296343 0.0029567778 -0.06860724 -0.24230257
-0.20240305 -0.025410702 -0.19092825 0.12016738 0.08013141 0.12140275 -0.10516761 0.2776975
0.11399033 0.018193386 -0.09315942 -0.014541535 0.08880609 0.16464984 0.059984855 0.2171794
00000000: 582f 573d 00f2 e6bd 649a f63d 8c2d b5bd
00000010: b4eb 07be a0e5 26be c021 8c3d c4d0 bdbd
00000020: ece3 c13d d200 4ebe 5eeb 62be 9433 f23d
00000030: f41e 77be 9886 0fbe 20cd f33d 386f 55bd
00000040: 7c3d 93bd 646b 33be 8050 563d be8c 0e3e
00000050: 5ab0 2e3e d44f 743e 9c69 1abe 1451 78be
00000060: 8079 bebc ec58 1abe 9a26 7dbe 982b 87bd
00000070: 1613 5a3e 80c6 413b f481 8cbd 2a1e 78be
00000080: bf42 4fbe 1b2a d0bc b282 43be 511a f63d
00000090: f01b a43d 01a2 f83d 1e62 d7bd 5e2e 8e3e
000000a0: c373 e93d 4c0a 953c 5eca bebd 9e3f 6ebc
000000b0: f8df b53d f899 283e aeb2 753d 4764 5e3e

basicLayer.blocks.0.attn.proj.weight f4 [16, 16]
0.108516745 0.08604117 0.043392196 0.012768124 0.118648656 0.04809727 -0.04667244 0.003849307
-0.06026626 0.009251323 0.17749986 -0.018878616 -0.11641026 -0.18144599 -0.12548599 -0.008702398
0.00060026563 0.04602198 -0.00396653 -0.123697534 -0.16101271 0.068006486 -0.24962762 -0.05736468
0.025628474 0.14151753 -0.1442485 -0.14046659 0.18305932 0.14780775 0.015410225 -0.07877175
-0.089612596 -0.021034928 -0.09374171 -0.0875204 -0.046484828 -0.15563571 0.08359152 -0.19216374
-0.023697335 -0.023835912 -0.032136444 0.049785785 -0.12984721 0.059778336 0.15913698 -0.02819903
-0.13922451 -0.23837718 -0.1683605 0.20471188 -0.14683542 -0.12020649 -0.0062128077 0.2740824
0.14084662 0.0069611394 -0.085887164 0.20719513 0.23724706 0.05593777 0.1030878 0.14214961
0.09844692 0.11054864 0.19860667 -0.15395927 0.12793525 0.10045779 -0.039088942 -0.27548224
-0.10856913 0.053198144 0.1774615 -0.1995096 -0.2681581 -0.122598484 -0.07752669 -0.115270026
-0.060669847 -0.018238688 -0.04505179 0.077208534 -0.114645325 0.043914508 -0.1559536 -0.02370867
0.12817721 0.10404385 -0.050170556 -0.037590757 0.099684216 -0.0895457 -0.03564564 0.051159773
-0.034427635 0.028674878 -0.09162668 -0.17149101 -0.039807163 -0.07482129 0.057700172 0.11747145
-0.11075264 -0.044619843 0.0114596095 0.046694964 0.07073825 0.20399195 0.0670794 -0.11434683
-0.01740784 -0.11423294 0.13958272 0.08518807 -0.050492056 0.03477452 -0.12943551 0.12872975
0.12850754 0.0640916 -0.0003774234 0.045510303 -0.01932444 -0.065718934 -0.009488854 -0.10561367
0.10819824 0.058624305 -0.12403616 -0.03527454 -0.12281526 -0.10963788 -0.025671488 -0.12567276
-0.043710116 -0.028325584 -0.041994818 -0.08702808 0.072770275 0.12838209 0.013045832 0.07106929
0.09957564 -0.0084714405 -0.013692174 -0.014043636 0.046934877 -0.064407386 0.07077497 -0.07817136
-0.09713834 -0.05432732 -0.005749273 -0.022783699 -0.0068333596 0.080239534 0.009487043 0.10696395
-0.11826158 0.020310747 -0.048340555 -0.07036777 -0.11136606 0.07595593 -0.1074825 0.0025976948
0.060487203 0.10236584 0.059145253 -0.080684 0.07892898 -0.024085144 -0.016572801 -0.08792274
0.17667699 0.026358329 0.08155207 -0.004280473 0.07782095 -0.11050614 -0.12816785 -0.2198403
-0.048787903 0.02936963 0.04151599 0.017793387 -0.30190638 -0.14500108 0.018732868 -0.01906313
-0.10621712 0.030518994 -0.06858307 -0.11942063 -0.09373666 0.026796905 -0.08487446 -0.030885505
-0.01876692 0.07904051 0.0076075685 -0.06745126 0.09443632 0.04625955 0.042197768 -0.047970045
-0.0028988493 0.054835483 -0.03438036 0.08291044 -0.1072019 0.016745618 0.068937846 -0.022678535
0.11561822 -0.05449287 0.07251696 -0.0932066 0.028549133 -0.050873265 -0.108815745 -0.009129564
0.06882152 0.03431724 -0.019637074 0.025722511 0.08612847 0.0048924186 -0.0727709 0.18614464
-0.039591186 0.0036968398 -0.025381764 0.13685206 0.020471266 -0.04593836 -0.028450299 0.0006888419
-0.044262715 0.04484084 0.0487735 -0.079766534 0.12926753 0.115030035 -0.1401032 -0.18933332
-0.09690006 0.13538872 -0.074261494 -0.05427363 -0.025935747 -0.09469272 0.05248398 0.095077
00000000: 073e de3d 5a36 b03d 04bc 313d 6531 513c
00000010: 11fe f23d a501 453d 9a2b 3fbd a844 7c3b
00000020: c1d9 76bd dc92 173c 86c2 353e 54a7 9abc
00000030: 8168 eebd facc 39be 667f 00be 8194 0ebc
00000040: 255b 1d3a 8b81 3c3d aaf9 81bb 2255 fdbd
00000050: 84e0 24be fc46 8b3d 629e 7fbe 3af7 6abd
00000060: cef2 d13c f9e9 103e e1b5 13be 79d6 0fbe
00000070: e773 3b3e ea5a 173e 2b7b 7c3c 1553 a1bd
00000080: cf86 b7bd 7151 acbc a7fb bfbd e53d b3bd
00000090: e066 3ebd f85e 1fbe 0832 ab3d 92c6 44be
000000a0: ea20 c2bc 8843 c3bc 81a1 03bd 2eec 4b3d
000000b0: abf6 04be 21da 743d cef4 223e a701 e7bc
000000c0: df90 0ebe 2619 74be b266 2cbe fe9f 513e
000000d0: 065c 16be d22e f6bd cf94 cbbb 8754 8c3e
000000e0: 193a 103e 451a e43b 9ce5 afbd f62a 543e
000000f0: e5f0 723e 011f 653d b21f d33d ab8f 113e
00000100: 8a9e c93d 5367 e23d 8c5f 4b3e 80a7 1dbe
00000110: 7501 033e d0bc cd3d ba1b 20bd 020c 8dbe
00000120: 7e59 debd 4ce6 593d 78b8 353e 3f4c 4cbe
00000130: 054c 89be ea14 fbbd 50c6 9ebd b112 ecbd
00000140: f280 78bd 4d69 95bc 3a88 38bd 821f 9e3d
00000150: 2bcb eabd b3df 333d 4db2 1fbe af38 c2bc
00000160: e340 033e f114 d53d a47f 4dbd c4f8 19bd
00000170: 3d27 cc3d bc63 b7bd 2a01 12bd e98c 513d
00000180: fe03 0dbd 94e7 ea3c c5a6 bbbd 579b 2fbe
00000190: d60c 23bd e83b 99bd 0457 6c3d df94 f03d
000001a0: 48d2 e2bd 4cc3 36bd 16c1 3b3c 3843 3f3d
000001b0: 37df 903d 44e3 503e ed60 893d ac2e eabd
000001c0: e39a 8ebc f6f2 e9bd c6ee 0e3e 1577 ae3d
000001d0: c2d0 4ebd ba6f 0e3d be8a 04be bbd1 033e
000001e0: 7b97 033e 7542 833d e9e0 c5b9 0369 3a3d
000001f0: 4a4e 9ebc a697 86bd 2377 1bbc fb4b d8bd
00000200: 0a97 dd3d 0a20 703d ac06 febd 097c 10bd
00000210: 9186 fbbd d389 e0bd 034d d2bc 5cb0 00be
00000220: 6109 33bd 0e0b e8bc c202 2cbd c73b b2bd
00000230: 9508 953d 9876 033e 2fbe 553c c78c 913d
00000240: 50ee cb3d cccb 0abc 2455 60bc 4717 66bc
00000250: c93e 403d 05e8 83bd 78f2 903d 4e18 a0bd
00000260: 77f0 c6bd 5386 5ebd 6664 bcbb e1a4 babc
00000270: 60ea dfbb a054 a43d 8b6f 1b3c ea0f db3d
00000280: 2133 f2bd b962 a63c bf00 46bd fa1c 90bd
00000290: e413 e4bd c88e 9b3d c91f dcbd 163e 2a3b
000002a0: 6ec1 773d 2ea5 d13d 4b42 723d a73d a5bd
000002b0: 84a5 a13d 354e c5bc afc3 87bc d610 b4bd
000002c0: d0ea 343e 6ced d73c c604 a73d 3643 8cbb
000002d0: 9760 9f3d 0b51 e2bd 6f3e 03be d11d 61be
000002e0: d3d5 47bd 9498 f03c ac0c 2a3d 70c3 913c
000002f0: 7993 9abe 2a7b 14be ac75 993c 482a 9cbc
00000300: 5d88 d9bd f802 fa3c 4875 8cbd ce92 f4bd
00000310: 02f9 bfbd 2f85 db3c a9d2 adbd 9903 fdbc
00000320: 15bd 99bc fedf a13d e948 f93b e323 8abd
00000330: d467 c13d a77a 3d3d 91d7 2c3d 3d7c 44bd
00000340: 9ffa 3dbb 2c9b 603d 6cd2 0cbd f3cc a93d
00000350: ab8c dbbd 1b2e 893c 492f 8d3d 56c8 b9bc
00000360: 3fc9 ec3d ea33 5fbd c683 943d 1ae3 bebd
00000370: dfdf e93c 7c60 50bd cada debd 2b94 15bc
00000380: 4cf2 8c3d 3c90 0c3d eedd a0bc 04b8 d23c
00000390: 2064 b03d 9550 a03b e908 95bd b39c 3e3e
000003a0: 5e2a 22bd ae46 723b 6bed cfbc f222 0c3e
000003b0: 5bb3 a73c dd29 3cbd 9a10 e9bc 6693 343a
000003c0: d24c 35bd 07ab 373d b9c6 473d a35c a3bd
000003d0: b55e 043e de94 eb3d 3777 0fbe 98e0 41be
000003e0: 8a73 c6bd 57a3 0a3e 6916 98bd 074e 5ebd
000003f0: 3477 d4bc 42ee c1bd 71f9 563d bbb7 c23d

basicLayer.blocks.0.attn.proj.bias f4 [16]
0.10460505 -0.0953615 -0.18251461 0.32525802 -0.31635323 -0.36173612 -0.15500985 0.2271305
0.04443175 0.012098671 0.0065466356 -0.37989423 -0.116182104 -0.11136853 -0.040138032 0.25447348
00000000: 2c3b d63d e44c c3bd 1ce5 3abe 3888 a63e
00000010: 0df9 a1be 7a35 b9be e7ba 1ebe e694 683e
00000020: 11fe 353d 8139 463c 2985 d63b 7f81 c2be
00000030: e2f0 edbd 2f15 e4bd c767 24bd 594a 823e

basicLayer.blocks.0.norm2.weight f4 [16]
0.60533386 0.7539885 0.76822346 0.8206178 0.6215585 0.8300767 0.7255162 0.7243005
0.72266173 0.75431466 0.6112472 0.86402434 0.7558152 0.7103352 0.74990267 0.7771177
00000000: 29f7 1a3f 6405 413f 4baa 443f 0214 523f
00000010: 751e 1f3f e87f 543f 6ebb 393f c26b 393f
00000020: 5c00 393f c41a 413f b27a 1c3f b330 5d3f
00000030: 1b7d 413f 87d8 353f 9ff9 3f3f 30f1 463f

basicLayer.blocks.0.norm2.bias f4 [16]
0.005139775 -0.029749092 0.048636537 -0.07410872 0.11706013 0.018527346 0.019162366 -0.03781108
-0.015768092 -0.030765362 0.029686568 0.12722446 -0.027820658 -0.010212173 -0.030255474 -0.031658363
00000000: 8f6b a83b 5eb4 f3bc 1b37 473d 50c6 97bd
00000010: 39bd ef3d a9c6 973c 65fa 9c3c cbdf 1abd
00000020: 162c 81bc a407 fcbc 3f31 f33c 2147 023e
00000030: 26e8 e3bc f550 27bc 54da f7bc 33ac 01bd
